nohup: ignoring input
image numbers 80000
<generator object Module.parameters at 0x7fefdddec410>
DataParallel(
  (module): MNet(
    (Conv2d_1_7x7_s2): BasicConv2d(
      (conv): Conv2d(3, 32, kernel_size=(7, 7), stride=(2, 2), padding=(3, 3), bias=False)
      (bn): BatchNorm2d(32, eps=0.001, momentum=0.1, affine=True, track_running_stats=True)
    )
    (Conv2d_2_1x1): BasicConv2d(
      (conv): Conv2d(32, 32, kernel_size=(1, 1), stride=(1, 1), bias=False)
      (bn): BatchNorm2d(32, eps=0.001, momentum=0.1, affine=True, track_running_stats=True)
    )
    (Conv2d_3_3x3): BasicConv2d(
      (conv): Conv2d(32, 96, kernel_size=(3, 3), stride=(1, 1), padding=(1, 1), bias=False)
      (bn): BatchNorm2d(96, eps=0.001, momentum=0.1, affine=True, track_running_stats=True)
    )
    (incept_block_1): InceptBlock1(
      (module_a): InceptionA(
        (branch1x1): BasicConv2d(
          (conv): Conv2d(96, 32, kernel_size=(1, 1), stride=(1, 1), bias=False)
          (bn): BatchNorm2d(32, eps=0.001, momentum=0.1, affine=True, track_running_stats=True)
        )
        (branch5x5_1): BasicConv2d(
          (conv): Conv2d(96, 32, kernel_size=(1, 1), stride=(1, 1), bias=False)
          (bn): BatchNorm2d(32, eps=0.001, momentum=0.1, affine=True, track_running_stats=True)
        )
        (branch5x5_2): BasicConv2d(
          (conv): Conv2d(32, 32, kernel_size=(3, 3), stride=(1, 1), padding=(1, 1), bias=False)
          (bn): BatchNorm2d(32, eps=0.001, momentum=0.1, affine=True, track_running_stats=True)
        )
        (branch3x3dbl_1): BasicConv2d(
          (conv): Conv2d(96, 32, kernel_size=(1, 1), stride=(1, 1), bias=False)
          (bn): BatchNorm2d(32, eps=0.001, momentum=0.1, affine=True, track_running_stats=True)
        )
        (branch3x3dbl_2): BasicConv2d(
          (conv): Conv2d(32, 48, kernel_size=(3, 3), stride=(1, 1), padding=(1, 1), bias=False)
          (bn): BatchNorm2d(48, eps=0.001, momentum=0.1, affine=True, track_running_stats=True)
        )
        (branch3x3dbl_3): BasicConv2d(
          (conv): Conv2d(48, 48, kernel_size=(3, 3), stride=(1, 1), padding=(1, 1), bias=False)
          (bn): BatchNorm2d(48, eps=0.001, momentum=0.1, affine=True, track_running_stats=True)
        )
        (branch_pool): BasicConv2d(
          (conv): Conv2d(96, 16, kernel_size=(1, 1), stride=(1, 1), bias=False)
          (bn): BatchNorm2d(16, eps=0.001, momentum=0.1, affine=True, track_running_stats=True)
        )
      )
      (module_b): InceptionB(
        (branch1x1_1): BasicConv2d(
          (conv): Conv2d(128, 64, kernel_size=(1, 1), stride=(1, 1), bias=False)
          (bn): BatchNorm2d(64, eps=0.001, momentum=0.1, affine=True, track_running_stats=True)
        )
        (branch1x1_2): BasicConv2d(
          (conv): Conv2d(64, 80, kernel_size=(3, 3), stride=(2, 2), padding=(1, 1), bias=False)
          (bn): BatchNorm2d(80, eps=0.001, momentum=0.1, affine=True, track_running_stats=True)
        )
        (branch3x3dbl_1): BasicConv2d(
          (conv): Conv2d(128, 32, kernel_size=(1, 1), stride=(1, 1), bias=False)
          (bn): BatchNorm2d(32, eps=0.001, momentum=0.1, affine=True, track_running_stats=True)
        )
        (branch3x3dbl_2): BasicConv2d(
          (conv): Conv2d(32, 48, kernel_size=(3, 3), stride=(1, 1), padding=(1, 1), bias=False)
          (bn): BatchNorm2d(48, eps=0.001, momentum=0.1, affine=True, track_running_stats=True)
        )
        (branch3x3dbl_3): BasicConv2d(
          (conv): Conv2d(48, 48, kernel_size=(3, 3), stride=(2, 2), padding=(1, 1), bias=False)
          (bn): BatchNorm2d(48, eps=0.001, momentum=0.1, affine=True, track_running_stats=True)
        )
      )
    )
    (incept_block_2): InceptBlock2(
      (module_a): InceptionA(
        (branch1x1): BasicConv2d(
          (conv): Conv2d(256, 112, kernel_size=(1, 1), stride=(1, 1), bias=False)
          (bn): BatchNorm2d(112, eps=0.001, momentum=0.1, affine=True, track_running_stats=True)
        )
        (branch5x5_1): BasicConv2d(
          (conv): Conv2d(256, 32, kernel_size=(1, 1), stride=(1, 1), bias=False)
          (bn): BatchNorm2d(32, eps=0.001, momentum=0.1, affine=True, track_running_stats=True)
        )
        (branch5x5_2): BasicConv2d(
          (conv): Conv2d(32, 48, kernel_size=(3, 3), stride=(1, 1), padding=(1, 1), bias=False)
          (bn): BatchNorm2d(48, eps=0.001, momentum=0.1, affine=True, track_running_stats=True)
        )
        (branch3x3dbl_1): BasicConv2d(
          (conv): Conv2d(256, 48, kernel_size=(1, 1), stride=(1, 1), bias=False)
          (bn): BatchNorm2d(48, eps=0.001, momentum=0.1, affine=True, track_running_stats=True)
        )
        (branch3x3dbl_2): BasicConv2d(
          (conv): Conv2d(48, 64, kernel_size=(3, 3), stride=(1, 1), padding=(1, 1), bias=False)
          (bn): BatchNorm2d(64, eps=0.001, momentum=0.1, affine=True, track_running_stats=True)
        )
        (branch3x3dbl_3): BasicConv2d(
          (conv): Conv2d(64, 64, kernel_size=(3, 3), stride=(1, 1), padding=(1, 1), bias=False)
          (bn): BatchNorm2d(64, eps=0.001, momentum=0.1, affine=True, track_running_stats=True)
        )
        (branch_pool): BasicConv2d(
          (conv): Conv2d(256, 64, kernel_size=(1, 1), stride=(1, 1), bias=False)
          (bn): BatchNorm2d(64, eps=0.001, momentum=0.1, affine=True, track_running_stats=True)
        )
      )
      (module_b): InceptionB(
        (branch1x1_1): BasicConv2d(
          (conv): Conv2d(288, 64, kernel_size=(1, 1), stride=(1, 1), bias=False)
          (bn): BatchNorm2d(64, eps=0.001, momentum=0.1, affine=True, track_running_stats=True)
        )
        (branch1x1_2): BasicConv2d(
          (conv): Conv2d(64, 86, kernel_size=(3, 3), stride=(2, 2), padding=(1, 1), bias=False)
          (bn): BatchNorm2d(86, eps=0.001, momentum=0.1, affine=True, track_running_stats=True)
        )
        (branch3x3dbl_1): BasicConv2d(
          (conv): Conv2d(288, 96, kernel_size=(1, 1), stride=(1, 1), bias=False)
          (bn): BatchNorm2d(96, eps=0.001, momentum=0.1, affine=True, track_running_stats=True)
        )
        (branch3x3dbl_2): BasicConv2d(
          (conv): Conv2d(96, 128, kernel_size=(3, 3), stride=(1, 1), padding=(1, 1), bias=False)
          (bn): BatchNorm2d(128, eps=0.001, momentum=0.1, affine=True, track_running_stats=True)
        )
        (branch3x3dbl_3): BasicConv2d(
          (conv): Conv2d(128, 128, kernel_size=(3, 3), stride=(2, 2), padding=(1, 1), bias=False)
          (bn): BatchNorm2d(128, eps=0.001, momentum=0.1, affine=True, track_running_stats=True)
        )
      )
    )
    (incept_block_3): InceptBlock3(
      (module_a): InceptionA(
        (branch1x1): BasicConv2d(
          (conv): Conv2d(502, 176, kernel_size=(1, 1), stride=(1, 1), bias=False)
          (bn): BatchNorm2d(176, eps=0.001, momentum=0.1, affine=True, track_running_stats=True)
        )
        (branch5x5_1): BasicConv2d(
          (conv): Conv2d(502, 96, kernel_size=(1, 1), stride=(1, 1), bias=False)
          (bn): BatchNorm2d(96, eps=0.001, momentum=0.1, affine=True, track_running_stats=True)
        )
        (branch5x5_2): BasicConv2d(
          (conv): Conv2d(96, 160, kernel_size=(3, 3), stride=(1, 1), padding=(1, 1), bias=False)
          (bn): BatchNorm2d(160, eps=0.001, momentum=0.1, affine=True, track_running_stats=True)
        )
        (branch3x3dbl_1): BasicConv2d(
          (conv): Conv2d(502, 80, kernel_size=(1, 1), stride=(1, 1), bias=False)
          (bn): BatchNorm2d(80, eps=0.001, momentum=0.1, affine=True, track_running_stats=True)
        )
        (branch3x3dbl_2): BasicConv2d(
          (conv): Conv2d(80, 112, kernel_size=(3, 3), stride=(1, 1), padding=(1, 1), bias=False)
          (bn): BatchNorm2d(112, eps=0.001, momentum=0.1, affine=True, track_running_stats=True)
        )
        (branch3x3dbl_3): BasicConv2d(
          (conv): Conv2d(112, 112, kernel_size=(3, 3), stride=(1, 1), padding=(1, 1), bias=False)
          (bn): BatchNorm2d(112, eps=0.001, momentum=0.1, affine=True, track_running_stats=True)
        )
        (branch_pool): BasicConv2d(
          (conv): Conv2d(502, 64, kernel_size=(1, 1), stride=(1, 1), bias=False)
          (bn): BatchNorm2d(64, eps=0.001, momentum=0.1, affine=True, track_running_stats=True)
        )
      )
      (module_b): InceptionA(
        (branch1x1): BasicConv2d(
          (conv): Conv2d(512, 176, kernel_size=(1, 1), stride=(1, 1), bias=False)
          (bn): BatchNorm2d(176, eps=0.001, momentum=0.1, affine=True, track_running_stats=True)
        )
        (branch5x5_1): BasicConv2d(
          (conv): Conv2d(512, 96, kernel_size=(1, 1), stride=(1, 1), bias=False)
          (bn): BatchNorm2d(96, eps=0.001, momentum=0.1, affine=True, track_running_stats=True)
        )
        (branch5x5_2): BasicConv2d(
          (conv): Conv2d(96, 160, kernel_size=(3, 3), stride=(1, 1), padding=(1, 1), bias=False)
          (bn): BatchNorm2d(160, eps=0.001, momentum=0.1, affine=True, track_running_stats=True)
        )
        (branch3x3dbl_1): BasicConv2d(
          (conv): Conv2d(512, 96, kernel_size=(1, 1), stride=(1, 1), bias=False)
          (bn): BatchNorm2d(96, eps=0.001, momentum=0.1, affine=True, track_running_stats=True)
        )
        (branch3x3dbl_2): BasicConv2d(
          (conv): Conv2d(96, 112, kernel_size=(3, 3), stride=(1, 1), padding=(1, 1), bias=False)
          (bn): BatchNorm2d(112, eps=0.001, momentum=0.1, affine=True, track_running_stats=True)
        )
        (branch3x3dbl_3): BasicConv2d(
          (conv): Conv2d(112, 112, kernel_size=(3, 3), stride=(1, 1), padding=(1, 1), bias=False)
          (bn): BatchNorm2d(112, eps=0.001, momentum=0.1, affine=True, track_running_stats=True)
        )
        (branch_pool): BasicConv2d(
          (conv): Conv2d(512, 64, kernel_size=(1, 1), stride=(1, 1), bias=False)
          (bn): BatchNorm2d(64, eps=0.001, momentum=0.1, affine=True, track_running_stats=True)
        )
      )
    )
    (final_fc): Linear(in_features=512, out_features=26, bias=True)
  )
)
[  0      1] loss: 1.597719
[  0    201] loss: 0.753732
[  0    401] loss: 0.669463
[  0    601] loss: 0.673399
[  0    801] loss: 0.619093
[  0   1001] loss: 0.609148
[  0   1201] loss: 0.577062
[  1      1] loss: 0.603978
[  1    201] loss: 0.555108
[  1    401] loss: 0.564819
[  1    601] loss: 0.635134
[  1    801] loss: 0.584125
[  1   1001] loss: 0.562188
…
